…
[DIAGNOSTIC] Mode class distribution:
  Train: [ 212  412  203  810 1031]
  Val:   [ 63 126  63 251   0]
  Test:  [ 58 115  57 231   0]

[CLASSES] Severity=5 ['normal', 'early', 'moderate', 'severe', 'failure']
[CLASSES] Mode=5 (ex.: ['bearing_wear', 'cavitation', 'imbalance', 'misalignment', 'normal_operation'])
Model: "pump_predictive_market"
┏━━━━━━━━━━━━━━━━━━━━━┳━━━━━━━━━━━━━━━━━━━┳━━━━━━━━━━━━┳━━━━━━━━━━━━━━━━━━━┓
┃ Layer (type)        ┃ Output Shape      ┃    Param # ┃ Connected to      ┃
┡━━━━━━━━━━━━━━━━━━━━━╇━━━━━━━━━━━━━━━━━━━╇━━━━━━━━━━━━╇━━━━━━━━━━━━━━━━━━━┩
│ raw_input           │ (None, 16, 128)   │          0 │ -                 │
│ (InputLayer)        │                   │            │                   │
├─────────────────────┼───────────────────┼────────────┼───────────────────┤
│ sensor_mask         │ (None, 16)        │          0 │ -                 │
│ (InputLayer)        │                   │            │                   │
├─────────────────────┼───────────────────┼────────────┼───────────────────┤
│ aux_input           │ (None, 16, 10)    │          0 │ -                 │
│ (InputLayer)        │                   │            │                   │
├─────────────────────┼───────────────────┼────────────┼───────────────────┤
│ raw_to_specs        │ (None, 16, 96,    │          0 │ raw_input[0][0]   │
│ (RawToSpectrograms) │ 96, 1)            │            │                   │
├─────────────────────┼───────────────────┼────────────┼───────────────────┤
│ sensor_dropout      │ (None, 16)        │          0 │ sensor_mask[0][0] │
│ (SensorDropout)     │                   │            │                   │
├─────────────────────┼───────────────────┼────────────┼───────────────────┤
│ aux_norm            │ (None, 16, 10)    │         20 │ aux_input[0][0]   │
│ (LayerNormalizatio… │                   │            │                   │
├─────────────────────┼───────────────────┼────────────┼───────────────────┤
│ spec_augment        │ (None, 16, 96,    │          0 │ raw_to_specs[0][… │
│ (SpecAugment)       │ 96, 1)            │            │ sensor_dropout[0… │
├─────────────────────┼───────────────────┼────────────┼───────────────────┤
│ td_aux_dense64      │ (None, 16, 64)    │        704 │ aux_norm[0][0]    │
│ (TimeDistributed)   │                   │            │                   │
├─────────────────────┼───────────────────┼────────────┼───────────────────┤
│ td_cnn              │ (None, 16, 256)   │  4,812,192 │ spec_augment[0][… │
│ (TimeDistributed)   │                   │            │                   │
├─────────────────────┼───────────────────┼────────────┼───────────────────┤
│ dropout_4 (Dropout) │ (None, 16, 64)    │          0 │ td_aux_dense64[0… │
├─────────────────────┼───────────────────┼────────────┼───────────────────┤
│ concatenate         │ (None, 16, 320)   │          0 │ td_cnn[0][0],     │
│ (Concatenate)       │                   │            │ dropout_4[0][0]   │
├─────────────────────┼───────────────────┼────────────┼───────────────────┤
│ td_sensor_dense192  │ (None, 16, 192)   │     61,632 │ concatenate[0][0] │
│ (TimeDistributed)   │                   │            │                   │
├─────────────────────┼───────────────────┼────────────┼───────────────────┤
│ dropout_5 (Dropout) │ (None, 16, 192)   │          0 │ td_sensor_dense1… │
├─────────────────────┼───────────────────┼────────────┼───────────────────┤
│ attn_score          │ (None, 16, 1)     │        193 │ dropout_5[0][0]   │
│ (TimeDistributed)   │                   │            │                   │
├─────────────────────┼───────────────────┼────────────┼───────────────────┤
│ attn_squeeze        │ (None, 16)        │          0 │ attn_score[0][0]  │
│ (SqueezeLast)       │                   │            │                   │
├─────────────────────┼───────────────────┼────────────┼───────────────────┤
│ attn_weights        │ (None, 16)        │          0 │ attn_squeeze[0][… │
│ (MaskedSoftmaxLaye… │                   │            │ sensor_dropout[0… │
├─────────────────────┼───────────────────┼────────────┼───────────────────┤
│ mask_expand         │ (None, 16, 1)     │          0 │ sensor_dropout[0… │
│ (MaskExpand)        │                   │            │                   │
├─────────────────────┼───────────────────┼────────────┼───────────────────┤
│ attn_expand         │ (None, 16, 1)     │          0 │ attn_weights[0][… │
│ (ExpandDimsLast)    │                   │            │                   │
├─────────────────────┼───────────────────┼────────────┼───────────────────┤
│ masked_sum          │ (None, 192)       │          0 │ dropout_5[0][0],  │
│ (WeightedSum)       │                   │            │ mask_expand[0][0] │
├─────────────────────┼───────────────────┼────────────┼───────────────────┤
│ masked_denom        │ (None, 1)         │          0 │ mask_expand[0][0] │
│ (MaskedDenominator) │                   │            │                   │
├─────────────────────┼───────────────────┼────────────┼───────────────────┤
│ pooled_attn         │ (None, 192)       │          0 │ dropout_5[0][0],  │
│ (WeightedSum)       │                   │            │ attn_expand[0][0] │
├─────────────────────┼───────────────────┼────────────┼───────────────────┤
│ pooled_mean         │ (None, 192)       │          0 │ masked_sum[0][0], │
│ (DivideLayer)       │                   │            │ masked_denom[0][… │
├─────────────────────┼───────────────────┼────────────┼───────────────────┤
│ fusion_concat       │ (None, 384)       │          0 │ pooled_attn[0][0… │
│ (Concatenate)       │                   │            │ pooled_mean[0][0] │
├─────────────────────┼───────────────────┼────────────┼───────────────────┤
│ dense_4 (Dense)     │ (None, 256)       │     98,560 │ fusion_concat[0]… │
├─────────────────────┼───────────────────┼────────────┼───────────────────┤
│ batch_normalizatio… │ (None, 256)       │      1,024 │ dense_4[0][0]     │
│ (BatchNormalizatio… │                   │            │                   │
├─────────────────────┼───────────────────┼────────────┼───────────────────┤
│ dropout_6 (Dropout) │ (None, 256)       │          0 │ batch_normalizat… │
├─────────────────────┼───────────────────┼────────────┼───────────────────┤
│ dense_6 (Dense)     │ (None, 128)       │     32,896 │ dropout_6[0][0]   │
├─────────────────────┼───────────────────┼────────────┼───────────────────┤
│ dense_8 (Dense)     │ (None, 192)       │     49,344 │ dropout_6[0][0]   │
├─────────────────────┼───────────────────┼────────────┼───────────────────┤
│ dense_5 (Dense)     │ (None, 128)       │     32,896 │ dropout_6[0][0]   │
├─────────────────────┼───────────────────┼────────────┼───────────────────┤
│ dense_7 (Dense)     │ (None, 192)       │     49,344 │ dropout_6[0][0]   │
├─────────────────────┼───────────────────┼────────────┼───────────────────┤
│ batch_normalizatio… │ (None, 128)       │        512 │ dense_6[0][0]     │
│ (BatchNormalizatio… │                   │            │                   │
├─────────────────────┼───────────────────┼────────────┼───────────────────┤
│ batch_normalizatio… │ (None, 192)       │        768 │ dense_8[0][0]     │
│ (BatchNormalizatio… │                   │            │                   │
├─────────────────────┼───────────────────┼────────────┼───────────────────┤
│ batch_normalizatio… │ (None, 128)       │        512 │ dense_5[0][0]     │
│ (BatchNormalizatio… │                   │            │                   │
├─────────────────────┼───────────────────┼────────────┼───────────────────┤
│ batch_normalizatio… │ (None, 192)       │        768 │ dense_7[0][0]     │
│ (BatchNormalizatio… │                   │            │                   │
├─────────────────────┼───────────────────┼────────────┼───────────────────┤
│ dropout_8 (Dropout) │ (None, 128)       │          0 │ batch_normalizat… │
├─────────────────────┼───────────────────┼────────────┼───────────────────┤
│ dropout_10          │ (None, 192)       │          0 │ batch_normalizat… │
│ (Dropout)           │                   │            │                   │
├─────────────────────┼───────────────────┼────────────┼───────────────────┤
│ dropout_7 (Dropout) │ (None, 128)       │          0 │ batch_normalizat… │
├─────────────────────┼───────────────────┼────────────┼───────────────────┤
│ dropout_9 (Dropout) │ (None, 192)       │          0 │ batch_normalizat… │
├─────────────────────┼───────────────────┼────────────┼───────────────────┤
│ health (Dense)      │ (None, 1)         │        129 │ dropout_8[0][0]   │
├─────────────────────┼───────────────────┼────────────┼───────────────────┤
│ mode (Dense)        │ (None, 5)         │        965 │ dropout_10[0][0]  │
├─────────────────────┼───────────────────┼────────────┼───────────────────┤
│ rul (Dense)         │ (None, 1)         │        129 │ dropout_7[0][0]   │
├─────────────────────┼───────────────────┼────────────┼───────────────────┤
│ severity (Dense)    │ (None, 5)         │        965 │ dropout_9[0][0]   │
└─────────────────────┴───────────────────┴────────────┴───────────────────┘
 Total params: 5,143,553 (19.62 MB)
 Trainable params: 5,141,313 (19.61 MB)
 Non-trainable params: 2,240 (8.75 KB)
[TRAIN] samples train=2668 val=503 batch_size=128
Epoch 1/30

[VAL PRODUCT] epoch=1 sev_macro_f1=0.0000 mode_macro_f1=0.0557 critical_recall=1.0000
[CKPT] Guardado best weights: /mnt/c/Users/msmig/Desktop/Tese/DigitalTwin/backend/models/best_val_pump_predictive_market.weights.h5 (sev_macro_f1=0.0000)
…
